pytorch_dqn.pt (torch_old, 284011 bytes, 8 tensors)

fc1.weight f4 [128, 27]
-0.348549 0.49127308 -0.06561727 0.09299134 -0.21021235 0.45791462 0.073413216 0.5019257
0.0749186 -0.30782646 -0.18377003 0.8534542 0.21554781 -1.020155 0.3997346 0.31351447
-0.19532281 0.32110107 -1.4260577 0.57169753 0.15566455 0.23391834 -0.20660849 -0.581888
-0.13085443 1.0671079 -0.79719216 0.30014515 -1.8712714 -0.6072765 -0.918797 -0.96575254
0.91485614 -0.35398322 -0.25223455 0.48653007 -0.054281678 0.45227733 -2.250165 0.31330523
0.06318109 -0.9068789 0.031246532 -0.65518963 0.23665228 -0.32201704 -0.53053796 0.11096306
-0.2737779 0.526465 -0.22835165 -0.22100763 0.45009857 -1.1229606 0.03899604 -1.7626454
-0.6820718 -0.23859563 0.4061336 0.5858804 -0.09174002 -1.2593555 -0.39418972 -0.11467086
0.6815001 -0.8415483 -0.20569359 -0.829452 0.1947757 -0.39726678 -2.0330951 0.36807397
-0.9355308 0.34026766 -1.0981747 0.12112752 -0.2241814 0.44529438 -0.18092479 -0.70879894
0.48063374 0.8120573 -1.5140493 -0.06882254 -0.03071719 -1.3561369 0.4068944 -0.34863278
-0.10244499 0.38621777 -0.73323935 0.46728447 -0.085139155 0.49420515 0.06651619 -0.510004
-0.3446235 0.15373601 0.011493925 -0.6539316 0.41379166 -0.49428263 -0.1967208 -1.4238678
0.35098144 -0.15096222 0.093100354 0.27241296 -0.64479524 -0.97712463 0.49246264 -0.18638206
0.40280813 -1.2552367 0.07724274 0.5915679 -0.10715677 0.08531883 0.47238576 -0.5930972
0.4517024 -0.85672444 0.52865344 0.07472406 -0.07444853 -0.5149753 0.16751398 -0.017021827
-0.64056116 -0.0840102 0.019083034 -1.3588467 -0.50887924 -1.1970458 0.5245847 -0.19054869
0.17555705 -1.488693 -0.38610405 0.24476454 -0.54897904 0.108129784 -1.2353622 -0.96156764
-0.28380284 0.26875332 -0.40576398 0.54117477 0.14717728 0.051118072 -0.3284472 1.019064
0.44480485 0.2182653 -0.84987104 -0.17081642 -0.9720527 -0.92519 0.26672393 -0.22362098
0.047788672 0.5079068 -0.24062261 0.57699484 -1.26681 0.088240765 -0.7295347 -0.24153239
-0.37784296 -0.2963882 0.35527888 0.09857129 0.185062 -1.4928372 -0.70742923 -0.08641258
0.7024724 -0.27136344 -0.02317889 0.060687613 0.64567375 0.08800513 -1.1873537 -0.23999873
-0.7226862 0.13805154 -0.7022949 0.13274547 0.371064 -0.093234845 -0.948238 0.4707082
-0.40984336 -0.2837097 0.7826905 -0.4532592 -1.795781 0.7201785 -0.34103724 0.21028711
0.4877042 -0.5412101 0.20679191 -0.36507702 -0.016861299 0.50676674 -0.2744839 -0.14338753
0.6018078 -1.0804845 -0.011199487 0.47303045 -0.7624669 0.14382571 0.50226134 -0.23529032
-0.1975209 0.63481116 -1.0370729 0.8562563 -0.6213752 -0.5064647 -0.54776883 0.6681625
-3.1155305 -0.2866925 -0.7628056 0.09983954 -0.23816495 -1.1605486 0.4356087 -0.187398
-0.69570374 0.65473896 -0.46766874 0.69960195 0.051568117 0.099998645 -0.78142965 0.32545593
-0.681495 0.2059967 0.1179442 0.01311576 -0.0064293495 -1.4686676 -0.009587366 0.1706842
0.3869115 0.14377525 0.06477369 0.09669807 0.1584749 -0.11395204 0.17726296 -1.1235521
00000000: 0475 b2be 2588 fb3e 5962 86bd 3e72 be3d
00000010: e841 57be c973 ea3e ab59 963d 347e 003f
00000020: ec6e 993d 6e9b 9dbe 362e 3cbe f97b 5a3f
00000030: 91b8 5c3e 7094 82bf 03aa cc3e f884 a03e
00000040: b402 48be 5c67 a43e 0f89 b6bf c55a 123f
00000050: 8766 1f3e 4a88 6f3e 2d91 53be 9df6 14bf
00000060: b4fe 05be fe96 883f c914 4cbf a0ac 993e
00000070: d285 efbf 7976 1bbf 4836 6bbf 8f3b 77bf
00000080: 0334 6a3f 4a3d b5be e324 81be 781a f93e
00000090: 7756 5ebd e590 e73e b402 10c0 8b69 a03e
000000a0: 1665 813d 3729 68bf baf8 ff3c 82ba 27bf
000000b0: fa54 723e 6bdf a4be 56d1 07bf 9a40 e33d
000000c0: 9e2c 8cbe 69c6 063f 04d5 69be d34f 62be
000000d0: 5273 e63e 2cbd 8fbf 50ba 1f3d 5d9e e1bf
000000e0: 429c 2ebf 6a52 74be bef0 cf3e 42fc 153f
000000f0: 31e2 bbbd 9032 a1bf 3cd3 c9be 8ed8 eabd
00000100: ca76 2e3f b66f 57bf 57a1 52be f756 54bf
00000110: 4873 473e 8d66 cbbe 3b1e 02c0 3174 bc3e
00000120: f27e 6fbf 9037 ae3e fd90 8cbf b511 f83d
00000130: cf8f 65be a0fd e33e 5944 39be d973 35bf
00000140: a015 f63e fde2 4f3f 5ecc c1bf d5f2 8cbd
00000150: 9ea2 fbbc e595 adbf 7654 d03e ff7f b2be
00000160: aece d1bd 56be c53e 93b5 3bbf e93f ef3e
00000170: 705d aebd 7508 fd3e a439 883d 9f8f 02bf
00000180: 7e72 b0be f96c 1d3e 0451 3c3c 1068 27bf
00000190: 80dc d33e 9d12 fdbe 2d71 49be 4d41 b6bf
000001a0: d7b3 b33e d795 1abe 66ab be3d b679 8b3e
000001b0: 4d11 25bf d724 7abf 1024 fc3e f0da 3ebe
000001c0: de3c ce3e 99ab a0bf 7131 9e3d fe70 173f
000001d0: 0275 dbbd a4bb ae3d 8cdc f13e 38d5 17bf
000001e0: 8945 e73e 4b52 5bbf d555 073f ee08 993d
000001f0: 7978 98bd 6cd5 03bf c988 2b3e 5c71 8bbc
00000200: d1fb 23bf 8a0d acbd 0654 9c3c b0ee adbf
00000210: e945 02bf cc38 99bf 2f4b 063f 321f 43be
00000220: 3ac5 333e 7e8d bebf 6eaf c5be 8ea3 7a3e
00000230: e489 0cbf 2673 dd3d 5920 9ebf 4c29 76bf
00000240: 9b4e 91be 099a 893e 4cc0 cfbe 6e8a 0a3f
00000250: a4b5 163e 2f61 513d 3b2a a8be b070 823f
00000260: 76bd e33e f080 5f3e 2691 59bf 80ea 2ebe
00000270: 72d8 78bf 40d9 6cbf 0a90 883e e6fc 64be
00000280: 0ebe 433d 2e06 023f c665 76be efb5 133f
00000290: d526 a2bf 93b7 b43d c9c2 3abf 4454 77be
000002a0: a274 c1be 32c0 97be 1de7 b53e bfdf c93d
000002b0: e580 3d3e 4a15 bfbf 151a 35bf 14f9 b0bd
000002c0: 3bd5 333f 26f0 8abe a8e1 bdbc 9393 783d
000002d0: e04a 253f 093c b43d 35fb 97bf 3ac2 75be
000002e0: f601 39bf 625d 0d3e 99c9 33bf 6eee 073e
000002f0: 1afc bd3e e9f1 bebd babf 72bf aa00 f13e
00000300: fdd6 d1be 6642 91be 685e 483f 9711 e8be
00000310: 27dc e5bf 9e5d 383f 6f9c aebe 8155 573e
00000320: 5db4 f93e bf8c 0abf 42c1 533e 60eb babe
00000330: b520 8abc 77bb 013f 2789 8cbe 2ed4 12be
00000340: 1310 1a3f 514d 8abf 0e7e 37bc 0c31 f23e
00000350: 0831 43bf 0c47 133e 3394 003f f2ef 70be
00000360: eb42 4abe fc82 223f cebe 84bf 9d33 5b3f
00000370: 7212 1fbf aca7 01bf 943a 0cbf b30c 2b3f
00000380: da64 47c0 5cc9 92be 3a47 43bf ac78 cc3d
00000390: 83e1 73be db8c 94bf 1b08 df3e 43e5 3fbe
000003a0: a419 32bf f99c 273f 4772 efbe 1d19 333f
000003b0: 1739 533d 17cc cc3d c60b 48bf 29a2 a63e
000003c0: 7576 2ebf cdf0 523e bb8c f13d 7ce3 563c
000003d0: 4bad d2bb 4dfd bbbf 5414 1dbc d7c7 2e3e
000003e0: 4419 c63e d239 133e 12a8 843d a309 c63d
000003f0: 3f47 223e b05f e9bd 6c84 353e 8ed0 8fbf

fc1.bias f4 [128]
-0.10116684 -0.05585546 -0.6758593 -0.21161465 -0.32255447 -0.41559514 0.5486831 0.46642104
-0.2465413 -0.46064436 -0.32136557 -0.79643214 -0.07803975 -0.18816626 -0.4423003 -0.52871925
-0.06425079 -0.25926054 -0.38945073 -0.246672 -0.25120732 -0.8413735 -0.49171707 -0.7543602
-0.5285876 -0.061509702 -0.43688926 0.5981856 0.93470097 -0.40410617 -0.42249322 0.12049219
-0.36242828 -1.6283139 -0.19342375 -0.64784443 -0.089517035 0.9989128 -0.10276842 -0.7380423
-0.97680116 -0.33692124 -0.38723528 -0.81766623 -0.51249266 0.06163729 -0.7550285 -0.020092446
0.23499314 -0.50252104 -0.23417419 -0.5514898 -1.6610365 -0.3145641 -0.40295145 -0.79821545
-0.0147893885 -0.9853362 0.7136148 -0.84828144 -0.556125 -0.06336243 -0.43965814 0.22625755
-0.14829017 -0.23545963 0.2907336 0.038789615 -0.5427475 -0.0083811525 -0.21513848 -0.32522342
-0.1945398 -0.49137384 -0.32790038 -0.59074765 -0.18692315 1.9668355 -0.46508467 -0.7524371
-0.09055396 -1.0196313 -0.7107249 0.4196324 -0.10021663 -0.36594075 -1.3623161 -0.13413447
-0.66380066 -0.3628097 0.46969372 -0.28142712 -0.7963468 -0.17292388 -0.06398164 -0.15918465
-0.8916308 -0.8101054 -0.5720473 1.2380712 0.084457785 0.36851004 -0.86131483 0.2200991
-0.13357331 0.038149197 -0.39600396 -1.0023483 0.20690265 0.47159824 -0.12702934 -0.2178328
-0.22262211 1.3374496 -0.51144975 -0.5076314 -0.567102 -1.0755284 -0.36017177 0.2758921
-0.38566682 -0.7035703 0.085917145 -0.42992333 -0.8756045 -0.0141213825 -0.66587615 -0.8865874
00000000: 8f30 cfbd b2c8 64bd 1d05 2dbf 83b1 58be
00000010: dc25 a5be e3c8 d4be 7f76 0c3f bdce ee3e
00000020: 5375 7cbe 94d9 ebbe 078a a4be fae2 4bbf
00000030: 4ed3 9fbd a8ae 40be 2f75 e2be 255a 07bf
00000040: eb95 83bd ccbd 84be 1666 c7be 9697 7cbe
00000050: 3f9e 80be 4164 57bf 57c2 fbbe c01d 41bf
00000060: 8451 07bf 99f1 7bbd f3af dfbe b122 193f
00000070: 9048 6f3f 01e7 cebe 0851 d8be 9cc4 f63d
00000080: 3390 b9be 976c d0bf e010 46be 22d9 25bf
00000090: b554 b7bd c0b8 7f3f 4078 d2bd 57f0 3cbf
000000a0: a40f 7abf f180 acbe b443 c6be 9352 51bf
000000b0: b832 03bf 6277 7c3d 8c49 41bf ea98 a4bc
000000c0: 0ba2 703e 38a5 00bf 5ccb 6fbe 6f2e 0dbf
000000d0: d89c d4bf 8c0e a1be a74f cebe d957 4cbf
000000e0: 314f 72bc fe3e 7cbf 76af 363f f928 59bf
000000f0: 355e 0ebf 29c4 81bd df1a e1be 0fb0 673e
00000100: 61d9 17be 541c 71be 09db 943e dce1 1e3d
00000110: 80f1 0abf 1a51 09bc 434d 5cbe af83 a6be
00000120: 7135 47be 5a95 fbbe 8fe2 a7be 3d3b 17bf
00000130: c868 3fbe 44c1 fb3f 941f eebe b89f 40bf
00000140: 5b74 b9bd 4783 82bf 11f2 35bf 0fda d63e
00000150: 603e cdbd 965c bbbe 6060 aebf 8c5a 09be
00000160: d7ee 29bf 31c2 b9be b27b f03e 3717 90be
00000170: 62dd 4bbf f512 31be ce08 83bd 4d01 23be
00000180: eb41 64bf 1163 4fbf b171 12bf 1e79 9e3f
00000190: 34f8 ac3d 59ad bc3e 217f 5cbf a961 613e
000001a0: 71c7 08be 5542 1c3d 08c1 cabe f34c 80bf
000001b0: 4ade 533e 5375 f13e fb13 02be 900f 5fbe
000001c0: 0df7 63be 8c31 ab3f 5fee 02bf 22f4 01bf
000001d0: 992d 11bf eaaa 89bf 6f68 b8be bb41 8d3e
000001e0: 1f76 c5be 2f1d 34bf 54f5 af3d e91e dcbe
000001f0: 9e27 60bf 5f5d 67bc dc76 2abf 64f7 62bf

fc2.weight f4 [256, 128]
-0.56381327 -1.2506498 -0.42792875 -0.5738992 -0.0080404915 -0.62850565 -0.4965519 0.9393911
-1.0402651 0.7148148 -0.90260214 -0.9810524 0.116608806 -0.05990047 -0.19511344 0.5098738
-1.7775239 -0.50173926 -1.703025 -0.47700286 0.95171684 -0.036975093 -1.3575811 0.43007877
0.24248902 0.4029482 -0.3766268 0.40333158 0.5157304 -1.0911134 -0.64652014 0.6220063
-0.028375074 -0.23525554 0.37736234 -0.8827017 -0.039375067 -2.4979203 -0.22203186 -1.2303938
-0.3114484 -1.1036175 -1.4034954 -0.94838625 -0.66180664 0.18739682 -1.0657406 0.16407728
0.38705704 -0.6058987 0.52580017 -1.104103 -0.4416276 -0.04120538 1.3536679 -0.9918696
-0.9703779 0.6273763 -0.519473 -1.5885553 -0.15439738 -0.7255962 -1.5543715 -0.4518037
-0.6648783 -0.9846174 0.5199589 0.007889467 -0.17048585 -0.58468395 -1.7322843 -2.0638053
-0.5354842 -0.24095647 -0.6573625 -0.63862187 -1.3317477 -0.20207104 -1.7532811 0.9756114
0.13817652 -0.31907257 -0.10469135 -0.9624325 -0.003239568 0.44890535 0.3079539 -0.2985484
-1.1609598 -0.68306446 0.17364395 -2.0470424 -0.2429945 -0.042945173 -0.47437528 -0.8300624
-2.320189 -0.7197679 -0.6015919 -0.3495047 -1.0775254 -0.9489086 0.55684376 0.48774588
-0.096064895 -0.9109642 0.13535245 -0.5451733 0.24386548 -1.4724824 -2.3878057 -0.36478627
-0.31311822 -1.3289466 1.0907273 -0.067302786 -1.4801977 -0.32534567 0.61837786 0.05909684
-0.20863967 -0.18311013 -0.7555788 -0.25453463 -1.610645 -0.55030125 0.024998723 -0.8558239
0.16675842 -1.0761275 0.5132456 -0.6487551 0.6428914 0.39934283 -0.854862 0.1110134
0.50430846 0.06957904 0.40906003 -0.7147524 0.38538045 -0.061530277 0.4052863 0.43009788
0.74524003 -0.7607267 -0.26421344 0.8422074 0.73228204 -0.059098024 -0.7126643 0.18432283
0.87338334 -0.11859623 -0.12498031 0.19979538 -0.7579256 -1.1515766 -2.3433669 -0.82980394
0.4642531 -0.31441244 -0.67868835 -0.37222722 0.14172737 0.11838162 -0.8472903 -0.117274776
0.793487 -0.17535888 0.44661337 0.37981167 -0.45658836 0.1452646 -0.6842005 -0.34625947
0.9788691 1.6392844 0.2485064 0.5101453 0.9099372 0.27140322 0.06636307 0.5586462
-0.22912762 0.8115221 0.0937245 -0.118064135 0.29791322 -0.4873542 -0.047789548 -1.0171143
-0.2919944 0.27827692 -0.13652858 0.89113003 -0.33055115 0.451361 -0.6302716 -1.2359505
-1.0206256 -0.42485085 1.4108447 -0.91802406 -0.24158207 -0.29069105 -0.51494384 -0.4238557
0.13277583 0.33697093 -1.3762498 0.6412463 -1.0364587 1.0353799 1.2267698 -0.34515512
0.082286984 0.11238022 -0.008641222 -0.6396379 -0.7507128 0.04523947 0.76735675 0.36382726
0.6238811 -1.2231706 0.83911467 0.20384265 -0.48682097 -1.0137554 0.1113883 0.100915305
0.12438855 -1.3816363 -1.0189203 -0.28005353 -0.9058438 -2.4350705 0.9911135 0.11501461
-0.14790054 -0.21007647 -0.24897882 -1.6020206 -1.4283016 -0.6234499 0.4161829 0.5984106
-0.79655737 0.34735918 -1.3394357 -1.2856741 -0.6699643 -0.26052812 0.15166563 0.15950988
00000000: 1156 10bf 4b15 a0bf 7a19 dbbe 0feb 12bf
00000010: 44bc 03bc bfe5 20bf 0d3c febe ef7b 703f
00000020: 6827 85bf 1afe 363f ef10 67bf 4026 7bbf
00000030: 99d0 ee3d 325a 75bd d1cb 47be 1787 023f
00000040: e785 e3bf fc71 00bf b9fc d9bf b839 f4be
00000050: b7a3 733f 3273 17bd 38c5 adbf 4933 dc3e
00000060: 0b4f 783e 3a4f ce3e 3ad5 c0be 7a81 ce3e
00000070: e806 043f 9ba9 8bbf 5882 25bf ce3b 1f3f
00000080: d872 e8bc d4e6 70be a335 c13e bdf8 61bf
00000090: c047 21bd eddd 1fc0 525c 63be 8b7d 9dbf
000000a0: 2a76 9fbe 5743 8dbf bda5 b3bf 71c9 72bf
000000b0: 296c 29bf f4e4 3f3e 306a 88bf e003 283e
000000c0: 572c c63e 2d1c 1bbf d79a 063f 3f53 8dbf
000000d0: 031d e2be f9c6 28bd fd44 ad3f 2beb 7dbf
000000e0: b06a 78bf bc9b 203f 2ffc 04bf c855 cbbf
000000f0: 591a 1ebe acc0 39bf a5f5 c6bf d152 e7be
00000100: 7735 2abf e30f 7cbf 071c 053f d342 013c
00000110: d893 2ebe d9ad 15bf 7ebb ddbf 6315 04c0
00000120: 7e15 09bf 4bbd 76be e948 28bf b97c 23bf
00000130: b576 aabf b6eb 4ebe 846b e0bf abc1 793f
00000140: 257e 0d3e 7b5d a3be 6b68 d6bd fa61 76bf
00000150: ef4e 54bb ecd6 e53e 22ac 9d3e 56db 98be
00000160: 559a 94bf 50dd 2ebf b8cf 313e be02 03c0
00000170: 8dd3 78be 47e7 2fbd 51e1 f2be f87e 54bf
00000180: fa7d 14c0 b642 38bf ed01 1abf 48f2 b2be
00000190: 5aec 89bf adeb 72bf 508d 0e3f d4b9 f93e
000001a0: acbd c4bd f334 69bf d599 0a3e 7a90 0bbf
000001b0: dfb7 793e 4e7a bcbf cfd1 18c0 44c5 babe
000001c0: 0851 a0be ec1a aabf f49c 8b3f 0bd6 89bd
000001d0: 1e77 bdbf b593 a6be 034e 1e3f 870f 723d
000001e0: a3a5 55be 3981 3bbe 9d6d 41bf 5d52 82be
000001f0: 9e29 cebf 8be0 0cbf 1fca cc3c 4617 5bbf
00000200: b8c2 2a3e 8cbe 89bf 1064 033f d014 26bf
00000210: 8894 243f aa76 cc3e 3cd8 5abf fe5a e33d
00000220: 5c1a 013f 757f 8e3d 5170 d13e 03fa 36bf
00000230: 9650 c53e 2c07 7cbd b081 cf3e ca35 dc3e
00000240: 0dc8 3e3f fcbe 42bf fc46 87be e79a 573f
00000250: d676 3b3f c510 72bd 2b71 36bf 20bf 3c3e
00000260: 0d96 5f3f 95e2 f2bd adf5 ffbd 2997 4c3e
00000270: 6a07 42bf dd66 93bf b9f9 15c0 086e 54bf
00000280: 95b2 ed3e abfa a0be 85be 2dbf 9194 bebe
00000290: fb20 113e 1072 f23d 04e8 58bf c22d f0bd
000002a0: f721 4b3f 4791 33be 82aa e43e ad76 c23e
000002b0: f3c5 e9be 3ec0 143e c427 2fbf ec48 b1be
000002c0: 2a97 7a3f 12d4 d13f 7678 7e3e e298 023f
000002d0: a5f1 683f 5df5 8a3e 5ce9 873d 7003 0f3f
000002e0: 6ea0 6abe eabf 4f3f a1f2 bf3d 9ccb f1bd
000002f0: 1588 983e 7d86 f9be f9be 43bd cd30 82bf
00000300: 4a80 95be 507a 8e3e 26ce 0bbe 1921 643f
00000310: 003e a9be ca18 e73e 7b59 21bf a033 9ebf
00000320: dca3 82bf 0d86 d9be 8f96 b43f a003 6bbf
00000330: 4a61 77be 75d5 94be 5cd3 03bf 9d03 d9be
00000340: 63f6 073e 7487 ac3e f428 b0bf b828 243f
00000350: aeaa 84bf 5487 843f cb06 9d3f 2cb8 b0be
00000360: 1486 a83d 9a27 e63d e993 0dbc 4fbf 23bf
00000370: b72e 40bf 064d 393d 7e71 443f 9147 ba3e
00000380: acb6 1f3f db90 9cbf 38d0 563f 21bc 503e
00000390: 9940 f9be bdc2 81bf 8d1f e43d afac ce3d
000003a0: 6dbf fe3d 75d9 b0bf fb6b 82bf 2d63 8fbe
000003b0: 61e5 67bf 32d8 1bc0 9db9 7d3f c88c eb3d
000003c0: 3d73 17be 491e 57be 4ef4 7ebe 030f cdbf
000003d0: 96d2 b6bf 6a9a 1fbf ed15 d53e 7031 193f
000003e0: 2feb 4bbf 10d9 b13e a172 abbf f890 a4bf
000003f0: c882 2bbf f163 85be 3c4e 1b3e 8f56 233e

fc2.bias f4 [256]
0.37081984 -0.2803977 -0.09494875 -0.3127337 -1.4889524 -0.44414324 -1.1437277 -1.1183795
-0.0898927 0.48908177 -0.33395055 0.1969313 -0.5895122 -1.1766912 -0.08106165 0.021782113
-1.1491951 -0.21000949 -0.6982188 -0.16044956 -0.07574572 -0.014744806 -0.8354746 -1.5376633
-0.13894327 -0.17308721 0.8746383 -0.37925893 0.11194471 1.7785968 -0.5156015 -0.9709894
-0.14548258 0.19583046 -0.22887936 -0.03441523 0.4037526 -1.0961082 0.14826027 -1.0859357
-0.17452994 -0.98849845 -0.40850952 -0.21626884 -0.66140944 -0.19169934 -0.22520743 -0.23677017
-0.06805003 -1.6205453 -0.474302 0.47451192 -0.13383831 -0.18274973 -0.69564426 -0.6544395
-0.110538796 -0.7368688 -0.21253197 -0.1629621 -0.40056565 -0.75830287 -0.19770767 -0.17876114
-0.94289505 -1.168698 -0.084139176 -0.61122715 -0.7285333 1.1927634 -0.07123944 -0.2200162
-0.29127342 -1.1766495 -0.8392145 -1.0416642 -1.2913449 -0.81337076 -1.0169034 -1.0214199
-0.40822956 -1.0448947 -1.2549161 -1.9514312 -0.41927227 0.1136561 -0.98040795 -0.16987188
-0.46449292 -1.2745292 -0.9071253 -1.2798432 -0.31042698 0.06709755 -1.0514258 -0.13595119
-0.08332178 -0.11438276 -0.5294572 -0.38285562 -0.24202448 -0.6890979 -0.12800884 -0.9276694
-1.5813354 -0.29279816 -0.08899764 -0.088729456 -0.080109864 -0.75680023 -0.85277 -0.158559
-1.1197344 -0.57676446 -0.3565455 -1.0204109 -0.25005296 -0.33111963 -0.95633376 -0.45534927
-0.71460533 -1.0665796 -1.3904004 -0.43920544 -0.92800045 -0.11910001 -0.23624423 -1.2133746
-0.6685579 -0.16154315 -0.8571206 -0.6844537 -0.8753205 -0.14045627 -0.4885724 -0.9565418
-0.91167796 -0.38681155 -0.477552 -0.46821153 -1.4925691 -0.272325 -0.15478006 -1.0384223
-0.8238266 -0.3898676 -0.99120796 -0.11379846 0.023561345 -0.33268464 0.22112925 -0.03758185
-0.35702527 -0.17918046 -0.0634093 -0.21895015 -1.0184604 -0.2404919 0.2058345 0.5230741
-0.9091076 -0.38995457 -0.46889317 -0.9683511 -0.502931 -0.84342885 0.31591246 0.37422276
-0.10173994 0.012746645 -0.19729723 -1.2548947 -0.20654635 -0.19432187 -1.2418462 -0.35434398
-0.5137026 -0.8309736 -0.13445635 0.063512474 -0.1422041 -0.23904476 -0.13178648 -0.77220994
-1.216955 -1.0922416 -0.12408163 -0.081444904 -0.35538822 -0.56217164 -0.097962044 -1.7007447
-0.14467825 -0.050102506 -0.43142113 -0.055422056 -0.04428825 0.27098 0.25847837 -0.2900198
-0.2624141 -1.4619722 -0.16029353 -0.11823912 -0.16897075 -0.5053005 0.1775691 -0.3822649
-0.14251848 -1.0214381 -0.25457278 -0.06103767 0.0638809 0.07333688 -0.11274189 -0.18269643
-1.7474328 -0.13343956 -0.15603665 -0.1521704 0.20108278 -0.61319363 -0.33242568 -1.0804591
-0.8733216 -0.8760798 0.7200882 -0.17126854 -1.1013054 0.008704533 0.020214709 -0.36878607
-0.49367148 -0.67059726 -0.7297609 -1.0502489 -0.5949383 -1.072932 -1.6035718 -1.0422602
-0.556665 -0.4055164 -0.12526686 -0.0018975503 -0.7196482 -0.80474746 -0.43837014 -1.0092576
-1.121032 -0.7729401 -0.7686355 -0.5959087 -0.61934215 -0.17368434 -1.3471631 -0.925873
00000000: 19dc bd3e 4a90 8fbe 7e74 c2bd a21e a0be
00000010: fe95 bebf be66 e3be ab65 92bf 0f27 8fbf
00000020: aa19 b8bd ed68 fa3e 91fb aabe 5ca8 493e
00000030: 46ea 16bf d19d 96bf a603 a6bd 6770 b23c
00000040: d318 93bf ba0c 57be 78be 32bf e44c 24be
00000050: 9220 9bbd 3394 71bc aae1 55bf 27d2 c4bf
00000060: 2547 0ebe c63d 31be 4ce8 5f3f 3a2e c2be
00000070: 4543 e53d 0fa9 e33f 76fe 03bf c392 78bf
00000080: 63f9 14be c887 483e 5a5f 6abe fcf6 0cbd
00000090: a9b8 ce3e 464d 8cbf 8ad1 173e f1ff 8abf
000000a0: fab7 32be 3c0e 7dbf 2928 d1be 9475 5dbe
000000b0: 2152 29bf d54c 44be c79c 66be e173 72be
000000c0: d05d 8bbd 076e cfbf b6d7 f2be 3af3 f23e
000000d0: e90c 09be bf22 3bbe be15 32bf 5989 27bf
000000e0: 2a62 e2bd 6fa3 3cbf fba1 59be 89df 26be
000000f0: f116 cdbe 2320 42bf e173 4abe 290d 37be
00000100: 9261 71bf e597 95bf 2951 acbd 6279 1cbf
00000110: 2981 3abf 79ac 983f fce5 91bd ed4b 61be
00000120: ca21 95be 739c 96bf c3d6 56bf 4155 85bf
00000130: ca4a a5bf 1139 50bf e429 82bf e3bd 82bf
00000140: 7703 d1be 1cbf 85bf 17a1 a0bf 7fc8 f9bf
00000150: dbaa d6be 88c4 e83d 04fc 7abf e5f2 2dbe
00000160: 04d2 edbe c623 a3bf 5d39 68bf e7d1 a3bf
00000170: 49f0 9ebe 716a 893d 1f95 86bf ca36 0bbe
00000180: 9ca4 aabd 8241 eabd 828a 07bf a705 c4be
00000190: 44d5 77be b868 30bf c014 03be be7b 6dbf
000001a0: 3369 cabf a4e9 95be 6544 b6bd cab7 b5bd
000001b0: a410 a4bd a9bd 41bf 224f 5abf 4a5d 22be
000001c0: 7553 8fbf d6a6 13bf 228d b6be d39c 82bf
000001d0: f106 80be 8388 a9be 4ad2 74bf 8a23 e9be
000001e0: 60f0 36bf ae85 88bf a4f8 b1bf 89df e0be
000001f0: 7091 6dbf b5ea f3bd 02ea 71be dc4f 9bbf
00000200: 9c26 2bbf 916b 25be 416c 5bbf 5c38 2fbf
00000210: 0115 60bf c5d3 0fbe 2926 fabe ecdf 74bf
00000220: ba63 69bf 2a0c c6be b281 f4be 6cb9 efbe
00000230: 810c bfbf 2f6e 8bbe aa7e 1ebe 06eb 84bf
00000240: 4de6 52bf ba9c c7be cebf 7dbf 2b0f e9bd
00000250: b903 c13c a455 aabe b56f 623e 6def 19bd
00000260: 04cc b6be 157b 37be bcdc 81bd 7834 60be
00000270: e95c 82bf 8243 76be 47c6 523e 2fe8 053f
00000280: 47bb 68bf 20a8 c7be c412 f0be dce5 77bf
00000290: 16c0 00bf f4ea 57bf 47bf a13e 209a bf3e
000002a0: 085d d0bd 4ed7 503c 4908 4abe 64a0 a0bf
000002b0: e380 53be 50fc 46be d1f4 9ebf 936c b5be
000002c0: 0382 03bf b0ba 54bf edae 09be d412 823d
000002d0: f49d 11be 26c8 74be 09f3 06be 8daf 45bf
000002e0: 2ec5 9bbf 93ce 8bbf 821e febd 96cc a6bd
000002f0: 72f5 b5be 7bea 0fbf 53a0 c8bd 01b2 d9bf
00000300: 8926 14be 4938 4dbd 3be3 dcbe 3d02 63bd
00000310: 9967 35bd e4bd 8a3e 4757 843e 7a7d 94be
00000320: 245b 86be e821 bbbf fd23 24be 5a27 f2bd
00000330: ab06 2dbe 605b 01bf add4 353e 3ab8 c3be
00000340: 5df0 11be 7cbe 82bf 5d57 82be a302 7abd
00000350: fdd3 823d a531 963d 38e5 e6bd c614 3bbe
00000360: e1ab dfbf 61a4 08be 12c8 1fbe 8fd2 1bbe
00000370: a5e8 4d3e 42fa 1cbf b333 aabe 7c4c 8abf
00000380: 0192 5fbf c446 60bf b357 383f 0561 2fbe
00000390: 93f7 8cbf 759d 0e3c 5199 a53c 87d1 bcbe
000003a0: 82c2 fcbe 43ac 2bbf 9cd1 3abf 8e6e 86bf
000003b0: e04d 18bf d655 89bf d741 cdbf c868 85bf
000003c0: 9981 0ebf d89f cfbe f545 00be 39b7 f8ba
000003d0: dd3a 38bf ee03 4ebf 0d72 e0be 5a2f 81bf
000003e0: fa7d 8fbf 67df 45bf 4cc5 44bf 798d 18bf
000003f0: 358d 1ebf 4fda 31be d76f acbf 0306 6dbf

fc3.weight f4 [128, 256]
-0.12886158 -0.07337672 -1.4755003 -0.28369385 -0.2522753 -0.63490975 -0.93081003 -1.6214067
-0.027938923 0.9090017 -1.5596972 -0.9218648 -0.32124212 -1.0201519 -0.72664565 -0.61633575
-0.99095786 -1.0432425 -0.78848094 -0.00031410676 -0.039412018 -0.7654245 -1.5802402 -1.2737789
-0.012150882 0.0019301749 -0.245982 -0.42858627 -2.224123 0.39455792 -0.2609563 -0.9444135
0.013659343 -0.42992488 -0.44969323 -0.06075799 -0.40834904 -0.08967126 -0.15553537 -0.6394003
-0.014720107 -0.66859746 0.42109776 -0.2791662 0.4615099 -0.0067497264 -0.9017652 -1.0941212
-0.5393261 -1.3130144 -0.07949384 -0.109323 -0.023673503 -0.046207722 -0.094014645 -0.6182146
-0.020899378 1.816789 0.2489689 0.031925935 -0.3119232 -1.2010297 -0.046054553 -0.5081927
0.85926545 -1.4758755 -0.2808347 0.79411584 -0.5524941 0.41449147 -0.040377665 0.08334899
0.17233057 -0.31829733 -1.5145451 -1.3800867 -0.41556293 0.31725064 -0.06170283 -0.47594422
-1.5763575 -0.18065852 0.10061644 -0.14698541 0.7436579 0.6107766 -1.1392155 0.018871639
0.094730414 0.003501025 0.6136145 -1.5017968 -1.5774956 0.055078153 0.025626266 -0.035381556
-0.5095544 -1.2735307 0.25101402 -0.05478268 -0.067427404 -0.18598683 -0.61821103 -0.6155008
-0.6502322 0.07008612 -0.4791845 -0.030648433 -1.0488061 -0.76682156 -1.3955338 0.07683494
-0.84208846 0.77453876 -0.8630639 -0.18309997 -0.40365374 -0.24652597 0.35307986 -1.2684296
0.18560286 -1.7285484 -0.7389393 1.1088605 -0.88066053 0.0073988577 0.15281345 -0.85918105
0.4413923 -0.8356996 -1.3084549 -0.3405256 0.930567 0.051751155 -0.46550822 -1.0744163
-0.3504767 -1.186722 -0.48981434 -1.2778239 -0.40903825 -1.0617722 -0.13620739 -0.70234674
-1.0593585 -2.0021195 0.496436 -0.36218113 -0.048997436 -1.3626747 -0.21749137 0.060704768
-0.14434364 -0.16806586 0.067824945 0.66394556 -0.55316013 0.7596538 -0.5583868 0.17075077
-0.48277318 -0.5256101 -0.30187285 0.069633335 0.12979537 -1.3057139 0.45897657 1.6859123
-0.007589419 -0.06563992 -0.044338193 0.3444381 0.24765109 1.8434966 0.5979581 0.5420593
-0.63301545 0.28137326 0.017106017 -0.81509554 -0.50412136 -0.031080019 -0.015182687 -0.7045005
-0.19484395 0.057508864 -0.11376672 -0.019154001 -0.3193257 -1.3977808 -0.03558858 0.62605226
-0.0015429583 -0.22025903 -1.1775312 -0.02336169 -0.0352618 -0.8155235 -0.29284734 1.0123181
-1.120072 -0.82086337 -0.033811163 -1.2501394 0.021228952 0.30679557 0.18743175 -1.883652
-0.08178573 -0.5351179 -1.4890316 0.1984044 -0.2875149 -2.2548113 -0.005286364 -0.30315146
-1.2972832 -1.0643651 0.05723596 -0.027854772 -1.010292 -0.53412545 -1.4813766 -1.0278591
-0.79767126 1.4506757 -0.7755027 -0.67040455 0.43914485 -0.3887339 -0.9759008 -1.2619947
0.18356498 0.1899995 -0.13737248 -1.2658178 0.57160413 -2.2656145 -1.0786539 -0.20653684
-1.4269952 -1.0256639 0.020701505 -0.12401642 -0.88171244 0.24662465 -0.59652656 0.04267649
-0.7757079 0.14661011 -1.0047357 -0.46347454 -1.343183 -1.2492925 -1.4416084 0.38958883
00000000: 4af4 03be 8946 96bd 32dd bcbf 5240 91be
00000010: 3a2a 81be 7289 22bf 9149 6ebf 418a cfbf
00000020: 2be0 e4bc 56b4 683f 28a4 c7bf 55ff 6bbf
00000030: d979 a4be 5694 82bf 7305 3abf 2ec8 1dbf
00000040: 6aaf 7dbf f888 85bf e3d9 49bf b2ae a4b9
00000050: 7f6e 21bd dcf2 43bf 5045 cabf 300b a3bf
00000060: 7e14 47bc ecfd fc3a b5e2 7bbe a96f dbbe
00000070: 0858 0ec0 7f03 ca3e 109c 85be 15c5 71bf
00000080: 70cb 5f3c 1d1f dcbe 313e e6be 5fdd 78bd
00000090: 2013 d1be 91a5 b7bd aa44 1fbe bdaf 23bf
000000a0: 9b2c 71bc 3429 2bbf 209a d73e dfee 8ebe
000000b0: 074b ec3e cf2c ddbb 16da 66bf 2a0c 8cbf
000000c0: 4611 0abf db10 a8bf abcd a2bd bde4 dfbd
000000d0: efee c1bc 4f44 3dbd c08a c0bd 5043 1ebf
000000e0: 2c35 abbc 8b8c e83f b4f1 7e3e c5c4 023d
000000f0: 66b4 9fbe 57bb 99bf b3a3 3cbd eb18 02bf
00000100: d2f8 5b3f 7de9 bcbf 91c9 8fbe 2d4b 4b3f
00000110: 4170 0dbf 3a38 d43e 0d63 25bd e0b2 aa3d
00000120: 6d77 303e def7 a2be 9ddc c1bf aea6 b0bf
00000130: aac4 d4be ad6e a23e 1bbc 7cbd f6ae f3be
00000140: 15c6 c9bf 8cfe 38be fe0f ce3d 5883 16be
00000150: 5d60 3e3f db5b 1c3f d0d1 91bf b298 9a3c
00000160: 0502 c23d 7471 653b d715 1d3f e13a c0bf
00000170: 60eb c9bf a199 613d 2dee d13c 40ec 10bd
00000180: 2872 02bf 0e03 a3bf e984 803e ce63 60bd
00000190: 6117 8abd 5573 3ebe 1443 1ebf 7691 1dbf
000001a0: 9e75 26bf 5089 8f3d ac57 f5be 6c12 fbbc
000001b0: 473f 86bf 6b4e 44bf daa0 b2bf a35b 9d3d
000001c0: 1c93 57bf 2c48 463f c1f1 5cbf 8f7e 3bbe
000001d0: b4ab cebe 4e71 7cbe e2c6 b43e e75b a2bf
000001e0: ad0e 3e3e 1341 ddbf 202b 3dbf 24ef 8d3f
000001f0: f872 61bf 1e72 f23b 217b 1c3e 4af3 5bbf
00000200: 2cfe e13e 69f0 55bf 737b a7bf 5f59 aebe
00000210: a439 6e3f 05f9 533d 1857 eebe 7986 89bf
00000220: af71 b3be 82e6 97bf f2c8 fabe bc8f a3bf
00000230: 766d d1be 27e8 87bf f379 0bbe ffcc 33bf
00000240: 0f99 87bf ba22 00c0 dc2c fe3e ce6f b9be
00000250: 89b1 48bd 206c aebf 0fb6 5ebe 90a5 783d
00000260: d2ce 13be 7519 2cbe cee7 8a3d 56f8 293f
00000270: e79b 0dbf ac78 423f 70f2 0ebf 4ad9 2e3e
00000280: 0c2e f7be 628e 06bf 148f 9abe ec9b 8e3d
00000290: 14e9 043e a221 a7bf fafe ea3e f9cb d73f
000002a0: a9b0 f8bb 396e 86bd f79b 35bd 315a b03e
000002b0: 3f98 7d3e b2f7 eb3f c813 193f 66c4 0a3f
000002c0: 4d0d 22bf 2810 903e eb21 8c3c 1aaa 50bf
000002d0: 190e 01bf 869b febc cec0 78bc 255a 34bf
000002e0: 2c85 47be 6a8e 6b3d 87fe e8bd dae8 9cbc
000002f0: a87e a3be 7bea b2bf 55c5 11bd f644 203f
00000300: 173d caba 958b 61be 58b9 96bf 0461 bfbc
00000310: ad6e 10bd 26c6 50bf 16f0 95be a493 813f
00000320: 855e 8fbf 1a24 52bf 937d 0abd 9104 a0bf
00000330: 57e8 ad3c 4f14 9d3e 1cee 3f3e 821b f1bf
00000340: 477f a7bd 7dfd 08bf 9698 bebf 862a 4b3e
00000350: 2735 93be d44e 10c0 3c39 adbb ab36 9bbe
00000360: 600d a6bf 1e3d 88bf 4170 6a3d b12f e4bc
00000370: 4051 81bf 72bc 08bf c09d bdbf e390 83bf
00000380: 2f34 4cbf beaf b93f 5887 46bf a29f 2bbf
00000390: 98d7 e03e 2108 c7be a3d4 79bf 0b89 a1bf
000003a0: 75f8 3b3e 3b8f 423e 5fab 0cbe 5106 a2bf
000003b0: a654 123f d4ff 10c0 5511 8abf 657e 53be
000003c0: c7a7 b6bf f448 83bf 3496 a93c 52fc fdbd
000003d0: e8b7 61bf 2c8b 7c3e f7b5 18bf 8bcd 2e3d
000003e0: cb94 46bf f620 163e 2e9b 80bf 894c edbe
000003f0: 6ced abbf d1e8 9fbf a086 b8bf 3078 c73e

fc3.bias f4 [128]
0.15397891 -0.14196482 0.6725444 -0.7070205 0.67667496 -0.032139502 0.32029754 -0.666929
-0.18963133 0.2137374 1.1934621 0.36501628 -0.67550236 -0.13803813 -0.1428074 -0.5598647
-0.26136628 0.2725315 -0.035731096 -0.030905696 -0.49600303 -0.44031906 -0.5434393 0.17348646
-0.1790706 -0.012879721 -0.2003869 -0.17618892 2.0828297 -0.17494006 -0.6678529 -0.7993406
-0.24255863 -0.1275705 -0.9869361 -0.901858 -0.16934319 0.23136613 -0.45627803 0.7866854
-0.26104409 -0.3603105 -0.35197014 -0.68017614 0.08860591 -0.4743115 -0.12017823 0.0014367773
-0.48523533 0.284434 -0.6904178 -0.52246535 0.14838609 -1.0600429 -0.120801374 -0.7747097
-1.0371833 -0.07588594 -0.8103849 -0.23619875 -0.7619765 -0.6282592 0.5659943 -0.13985501
-0.22749709 -0.20469569 0.7726564 1.1039146 -0.26812422 -0.65353405 -0.34532905 -0.2458594
-0.3481241 -0.47355685 0.07890895 -0.15956056 -0.6753561 -0.4211572 -0.15870371 -0.682691
-0.29668224 -0.22759877 -0.20725404 -1.0410773 -1.0021224 0.22903046 -0.26077238 -0.35182416
-0.31320557 -0.11731328 -0.87904865 -0.66473824 -0.812901 0.20599948 0.25405186 -0.20489085
-0.6711335 -0.28170922 -1.2254379 0.078785285 -0.6682944 -0.5333012 0.47806385 -0.18564239
-0.24023156 -0.5715257 -0.13763906 -0.11341807 -0.35079187 0.058199704 -0.064829834 -0.11181869
-0.47472006 -0.94935006 -0.72378385 0.89243275 0.09967856 -0.19040586 -0.6354623 -0.7123839
0.038349643 -1.1097553 -0.24855863 -0.3972405 -0.3425203 -0.614503 -0.19758616 -0.4401473
00000000: a6ac 1d3e 3a5f 11be df2b 2c3f 4cff 34bf
00000010: 923a 2d3f b6a4 03bd 0afe a33e dcbb 2abf
00000020: b72e 42be fadd 5a3e 5ec3 983f 6ae3 ba3e
00000030: b9ed 2cbf de59 0dbe 1a3c 12be 4b53 0fbf
00000040: cdd1 85be 4089 8b3e c55a 12bd f12d fdbc
00000050: 1cf4 fdbe 8071 e1be d71e 0bbf 6fa6 313e
00000060: 495e 37be 7705 53bc 3932 4dbe de6a 34be
00000070: 154d 0540 7d23 33be 68f8 2abf 96a1 4cbf
00000080: 4a61 78be d7a1 02be d8a7 7cbf 2ae0 66bf
00000090: 4d68 2dbe 3eeb 6c3e 469d e9be 3764 493f
000000a0: 92a7 85be 9e7a b8be 6e35 b4be 0620 2ebf
000000b0: 0477 b53d f5d8 f2be 0120 f6bd 3f52 bc3a
000000c0: c470 f8be 55a1 913e 39bf 30bf 4ac0 05bf
000000d0: 86f2 173e 7caf 87bf b666 f7bd 6053 46bf
000000e0: 6cc2 84bf 166a 9bbd 6375 4fbf 16de 71be
000000f0: e410 43bf 98d5 20bf 01e5 103f 2736 0fbe
00000100: fff4 68be bf9b 51be cfcc 453f 134d 8d3f
00000110: 9447 89be 024e 27bf f8ce b0be 91c2 7bbe
00000120: 523d b2be 0b76 f2be 049b a13d d863 23be
00000130: 23e4 2cbf eba1 d7be 3a83 22be d6c4 2ebf
00000140: bce6 97be a70f 69be 673a 54be 0542 85bf
00000150: 8c45 80bf f686 6a3e f583 85be 4c22 b4be
00000160: 7b5c a0be f241 f0bd 5509 61bf 492c 2abf
00000170: 481a 50bf 87f1 523e 1613 823e e8ce 51be
00000180: 68cf 2bbf 313c 90be 26db 9cbf 2e5a a13d
00000190: 5815 2bbf 6d86 08bf c9c4 f43e 0a19 3ebe
000001a0: 43ff 75be 824f 12bf 41f1 0cbe bc47 e8bd
000001b0: fe9a b3be d062 6e3d 81c5 84bd 3301 e5bd
000001c0: 820e f3be 9b08 73bf e649 39bf 7976 643f
000001d0: 4624 cc3d c1f9 42be a8ad 22bf cb5e 36bf
000001e0: 8414 1d3d 760c 8ebf 2786 7ebe 1b63 cbbe
000001f0: d25e afbe 1250 1dbf 0754 4abe fd5a e1be

fc4.weight f4 [9, 128]
0.011547097 0.04694241 0.0055193133 -0.22354707 -0.042785976 0.03891551 -0.044533703 -0.30676615
-0.022502143 0.040109735 0.021437258 -1.8477488 -0.43214706 0.0054123527 0.0148763 -0.098257184
-0.0051303655 0.0397353 -0.32850766 -0.6291421 0.0097588645 -0.14814208 -0.012599823 -3.184541
0.04179868 -0.047836296 0.07925466 0.0074988506 0.17063573 0.03770548 0.11471464 -0.32047993
-0.5351333 -0.023123778 0.0481368 0.0057478226 -0.04264594 -0.5141264 -0.044870846 0.0040443623
0.0036802914 0.19185412 -0.8222749 0.0022270067 0.0074955937 -0.06526171 0.00767489 0.010717842
-1.2161864 -0.0032223442 -0.018688181 0.06761044 0.015273337 -0.02511385 0.019345528 -0.29684824
-1.0597056 -0.16989104 0.20576973 -0.014273602 0.06524741 -0.25533104 -1.2949878 0.03255002
0.025637047 0.02901207 -0.8358197 -4.1388426 -0.8391056 -0.30530474 0.10283733 -0.058233447
-0.057166215 -0.07413361 -0.029458076 -0.010072972 0.12244675 0.056535184 0.016757004 -0.011258533
0.01592623 0.16880292 -0.07389867 -0.11841259 -0.23548834 0.027400943 -0.7164169 0.08691407
0.024968626 -0.0001692816 0.13956189 -0.53829753 0.08861409 -0.8945362 0.031316955 0.030758977
-0.045405984 -0.0943613 0.047625307 -0.10075773 -0.8409345 -0.29017276 -1.2714707 -0.009931914
-0.12869346 -0.45231086 0.0025898288 -0.072140306 -0.16506635 0.02810907 -0.011779131 -0.09237283
-0.007211424 -0.74320704 0.02665028 0.008828605 -1.3258922 -0.049437072 -0.046969365 0.17062826
0.18993084 0.03014899 -0.10606049 0.04667824 0.042725585 -0.31668416 -0.523364 -0.36588797
-0.24157387 0.03897021 -2.1821866 0.007410975 0.04365825 -0.7065807 -3.0611477 -0.076437645
-0.033523656 -0.09083548 0.011884695 0.07900186 -0.70707357 -0.16727793 -0.012543554 0.0024276508
0.015780183 -2.5722668 0.05804907 -1.3957313 -0.18330261 -0.05305489 -0.4149012 0.01674397
-0.030058382 -0.8701741 0.029916383 -0.02019857 0.16566052 -0.006086684 -0.045290157 -0.54320353
-0.8787511 0.03651223 -0.005333547 -0.38191628 -0.0234131 -0.09250066 -0.27965522 -0.4519611
-0.09466551 0.03241497 -0.22929116 -0.122018896 -0.12708494 -0.00444114 0.0064551453 0.032116797
-0.1979332 -0.80013716 0.06656833 -1.0198774 -0.037342485 -0.00577861 0.063810095 0.042639956
0.04431085 -1.6178576 0.12876761 0.05297985 0.15126885 -0.06381729 -0.818409 -0.05777842
0.008047117 0.076554276 -0.020902006 -0.10699362 0.11404439 -0.60410744 0.06411072 -0.3688369
-0.13619341 0.07876897 -0.093148924 -0.018019535 0.038513936 -0.4476424 -0.06315076 0.031721126
-1.833052 -0.6982353 -0.0011569737 -0.004505923 -0.166416 0.10411569 0.03565262 -0.08907429
0.014379486 -0.044648994 0.054730017 -0.5860299 -0.37646502 0.0007754724 -0.21255143 0.05097659
-0.25708264 -0.059592884 -0.21288787 -1.4764324 -0.097728275 0.110855274 -0.050296962 -0.021073194
-0.30704454 -0.0014210631 -0.008146271 -0.04561158 0.0386558 -0.001059535 -0.012095603 0.028856052
-1.0929679 -0.91173536 -0.022761917 0.00629558 0.021154659 -0.022886023 -0.1563354 -0.16205005
0.001988562 -0.7258888 -0.37626603 -0.108114325 0.013876983 -0.58926475 -0.021761274 -0.5923136
00000000: 0930 3d3c af46 403d 5bdb b43b 86e9 64be
00000010: 5940 2fbd df65 1f3d f968 36bd 7410 9dbe
00000020: 6a56 b8bc 1b4a 243d 309d af3c 0883 ecbf
00000030: 6142 ddbe 1b5a b13b b9bb 733c 103b c9bd
00000040: a01c a8bb 7bc1 223d 2832 a8be 750f 21bf
00000050: a5e3 1f3c 8fb2 17be 7d6f 4ebc 85cf 4bc0
00000060: 1835 2b3d feef 43bd 4450 a23d ebb8 f53b
00000070: 22bb 2e3e 1071 1a3d 82ef ea3d f215 a4be
00000080: 7ffe 08bf 146e bdbc 182b 453d 3b58 bc3b
00000090: 82ad 2ebd ca9d 03bf 7eca 37bd 9286 843b
000000a0: 0b31 713b 6875 443e 9c80 52bf f9f2 113b
000000b0: 999d f53b eea7 85bd a57d fb3b e399 2f3c
000000c0: ffab 9bbf f72d 53bb f517 99bc 5877 8a3d
000000d0: 053d 7a3c 90bb cdbc 837a 9e3c 7efc 97be
000000e0: 6fa4 87bf ebf7 2dbe 4db5 523e d3db 69bc
000000f0: 6fa0 853d c0ba 82be 29c2 a5bf 2b53 053d
00000100: c904 d23c b8aa ed3c 48f8 55bf 6671 84c0
00000110: a0cf 56bf e750 9cbe 619c d23d 3286 6ebd
00000120: 1f27 6abd 5dd3 97bd 1052 f1bc 1b09 25bc
00000130: 5dc5 fa3d 7091 673d fc45 893c b675 38bc
00000140: ba77 823c acda 2c3e 3058 97bd 4d82 f2bd
00000150: db23 71be f177 e03c 1967 37bf 0100 b23d
00000160: 018b cc3c 2f81 31b9 50e9 0e3e decd 09bf
00000170: 4e7b b53d 5300 65bf 3546 003d 40fa fb3c
00000180: a0fb 39bd 7f40 c1bd c112 433d 125a cebd
00000190: 7c47 57bf 8691 94be 8dbf a2bf 77b9 22bc
000001a0: 38c8 03be 4a95 e7be 1eba 293b 4cbe 93bd
000001b0: 2707 29be fe44 e63c 42fd 40bc f72d bdbd
000001c0: cf4d ecbb d142 3ebf b051 da3c daa5 103c
000001d0: d6b6 a9bf 877e 4abd f362 40bd 2db9 2e3e
000001e0: 3b7d 423e 04fb f63c 3e36 d9bd af31 3f3d
000001f0: 0601 2f3d 6d24 a2be 2ffb 05bf ab55 bbbe
00000200: 245f 77be 3a9f 1f3d f2a8 0bc0 c4d7 f23b
00000210: fed2 323d 79e2 34bf d8e9 43c0 578b 9cbd
00000220: 1a50 09bd f407 babd 06b8 423c bacb a13d
00000230: c602 35bf e84a 2bbe 7b83 4dbc 3919 1f3b
00000240: 7145 813c 05a0 24c0 ddc4 6d3d 53a7 b2bf
00000250: aeb3 3bbe 1650 59bd ee6d d4be a62a 893c
00000260: ff3c f6bc bbc3 5ebf 3413 f53c 7977 a5bc
00000270: e9a2 293e ce72 c7bb 2c82 39bd 630f 0bbf
00000280: d5f5 60bf d98d 153d 09c5 aebb 888a c3be
00000290: d4cc bfbc fc70 bdbd f82e 8fbe 7267 e7be
000002a0: fedf c1bd 8fc5 043d 4dcb 6abe 0be5 f9bd
000002b0: 8e22 02be fc86 91bb af85 d33b e78c 033d
000002c0: 00af 4abe cad5 4cbf fa54 883d 588b 82bf
000002d0: 6ff4 18bd 7e5a bdbb deae 823d 3ca7 2e3d
000002e0: 4b7f 353d f515 cfbf a8db 033e 6601 593d
000002f0: 39e6 1a3e a4b2 82bd 4183 51bf 11a9 6cbd
00000300: 0ed8 033c 7dc8 9c3d af3a abbc 791f dbbd
00000310: 1b90 e93d c9a6 1abf 7b4c 833d 31d8 bcbe
00000320: 4976 0bbe a051 a13d ddc4 bebd b49d 93bc
00000330: cac0 1d3d 6231 e5be 3055 81bd 03ee 013d
00000340: 73a1 eabf 8cbf 32bf 98a5 97ba 6ca6 93bb
00000350: f568 2abe 9b3a d53d 7b08 123d 956c b6bd
00000360: f097 6b3c dde1 36bd 952c 603d 0e06 16bf
00000370: 06c0 c0be 1249 4b3a 15a7 59be d4cc 503d
00000380: 56a0 83be ab17 74bd 47ff 59be bdfb bcbf
00000390: c325 c8bd 1708 e33d 3004 4ebd b1a1 acbc
000003a0: f134 9dbe f742 baba f077 05bc 35d3 3abd
000003b0: 8b55 1e3d 18e0 8aba a32c 46bc 8763 ec3c
000003c0: 5fe6 8bbf 7d67 69bf 3377 babc 274b ce3b
000003d0: 894c ad3c 787b bbbc 6316 20be 73f0 25be
000003e0: 8952 023b d9d3 39bf f1a5 c0be 0b6b ddbd
000003f0: 495c 633c 0eda 16bf b344 b2bc dda1 17bf

fc4.bias f4 [9]
0.57028824 0.5472125 0.57403094 0.50171596 0.5498113 -0.30683345 0.61004794 0.6416253
0.73842543
00000000: 69fe 113f 1e16 0c3f b1f3 123f 7570 003f
00000010: 6fc0 0c3f 4619 9dbe 1a2c 1c3f 8e41 243f
00000020: 7309 3d3f
